model.pth (torch, 62665 bytes, 4 tensors)

fc1.weight f4 [128, 113]
000000 7e 8d d4 3c cc 2b 0b bd 0b 5f 8a bd 70 00 2b 3d
       0.025946375 -0.033977315 -0.06756409 0.041748464
000010 6f 03 7b 3c cc 1e 65 bd d1 97 a2 bd 3c c4 5b 3c
       0.015320643 -0.055937573 -0.07939113 0.013413485
000020 78 cc db 3c a9 65 8b 3c 62 96 20 3d dd 38 8b 3d
       0.026830897 0.017016249 0.039205916 0.06797955
000030 38 62 78 bd 16 39 a2 bd 08 20 ba bd 31 12 ca bc
       -0.060640544 -0.079210445 -0.09088141 -0.024666877
000040 b3 92 91 bc 40 71 82 3d c1 19 ed 3c 1b f6 95 3d
       -0.017770147 0.06369257 0.028942944 0.073223315
000050 cb b1 c1 bc 6e 96 01 bc 5d 17 94 bc f8 11 5b 3c
       -0.023644349 -0.0079094 -0.018077547 0.013370983
000060 53 9c b8 3c 7d 7e 11 bc a4 9a ae bd 3e b8 1c bc
       0.022535479 -0.008880255 -0.08525589 -0.009565411
000070 98 28 12 3c 98 f7 cd bc e3 87 79 bd a9 e9 b1 bc
       0.008920811 -0.025142476 -0.060920607 -0.021717863
000080 92 6a d1 3d f0 bd ff 3c 2e 5b 93 3d 82 86 18 bd
       0.10225405 0.031218499 0.071951255 -0.03723765
000090 27 9d af 3d ee f0 bc bd fc d1 b2 bd 9d 4e b0 bc
       0.08574896 -0.09225641 -0.087314576 -0.02152186
0000a0 0b 75 8a 3c e7 47 6a 3d 56 9e 33 bd 59 04 a4 bd
       0.016901514 0.057197478 -0.043852173 -0.08008642
0000b0 fe 45 97 bd e0 7f 26 bd 11 f8 63 bd 38 09 7f 3d
       -0.07386397 -0.040649295 -0.055656496 0.06226465
0000c0 51 62 93 bd aa 5e 60 bd b5 2f 0f bd be 7c 65 bd
       -0.07196487 -0.05477778 -0.034957606 -0.056027167
0000d0 83 ce c3 3d a0 96 e1 bc 95 61 80 bc b1 e2 48 3d
       0.09560873 -0.027537644 -0.01567153 0.049044315
0000e0 f4 fc c9 3b 62 38 97 bd 86 aa ae 3d 31 94 a3 3b
       0.0061641876 -0.07383801 0.085286185 0.004992031
0000f0 5c f8 40 3c a9 2a d8 bc c6 8b 2e 3b 55 0f 24 bd
       0.0117779635 -0.02638753 0.0026633604 -0.040053684
000100 59 ed b4 3c ed fc 9a 3c 32 da 9d 3c 2e cd a0 3d
       0.022085832 0.018919433 0.019269083 0.07851635
000110 13 4d 2e 3d 37 23 08 3c e2 11 ec 3c 7d f9 33 3d
       0.042553972 0.008309177 0.028817121 0.043939102
000120 ac a6 4f bc c3 4b 1e 3c ba ec 96 3d bb f3 40 3d
       -0.012674015 0.009661618 0.07369371 0.04710744
000130 da 91 2c 3c b7 08 64 3c 75 7d 41 3d a5 bb 9b bd
       0.010532821 0.013918093 0.047238786 -0.0760415
000140 dc 9a 2c bd 4d d9 50 3d c0 8b 33 bd 08 07 63 3d
       -0.042139873 0.050988484 -0.043834448 0.055426627
000150 d9 d6 8f bd ee d9 d2 3c 66 3f 10 3d ad 99 a6 3c
       -0.07023401 0.025738683 0.03521671 0.02033695
000160 ab fc bf 3d b3 2a 6d 3d ed 8f 10 bd a7 6e ab bd
       0.093743645 0.05790205 -0.03529351 -0.08370715
000170 bf 0e 75 bd 3c 78 87 bd 95 b4 8f 3d 03 b5 42 bd
       -0.059828516 -0.0661473 0.07016865 -0.047535907
000180 47 f7 ba 3d 97 2f 9a bc d1 95 9f bd e6 a9 43 3c
       0.09129196 -0.01882152 -0.07792247 0.011942362
000190 85 4c bf 3b ab 36 8f 3d a4 48 59 bd 00 1a 0a 3d
       0.0058379793 0.06992849 -0.05304779 0.0337162
0001a0 8e 07 7b bd 8a b8 35 3d f8 4c 58 3d ad 44 34 3a
       -0.0612865 0.044365443 0.052807778 0.00068766886
0001b0 84 34 6e bd 8d 97 b5 bd 95 99 11 bc 76 8d e2 3c
       -0.05815555 -0.08866797 -0.0088867145 0.027655344
0001c0 d1 44 5d 3d 14 71 f5 3c 9a b9 63 bd ec 5f 3d 3d
       0.054020707 0.029961146 -0.055596925 0.046234056
0001d0 0b e7 4e 3d 8a 45 dc bb 86 cb a4 bd 91 60 8a bd
       0.05051331 -0.006722157 -0.080466315 -0.067567
0001e0 b8 80 39 bd 39 6f 62 ba d2 bf c0 bc 97 94 25 3d
       -0.04528877 -0.0008637789 -0.023528967 0.04042491
0001f0 a6 8b 9d bd 01 59 84 bc 3b f0 f3 bc fc ac a1 3d
       -0.076926515 -0.016155722 -0.029777637 0.07894322
000200 8a 51 cf bc 67 f6 92 bd 7a ca 8a 3d 71 60 7a 3d
       -0.025307436 -0.07175904 0.067769006 0.06112713
000210 ed 76 09 3d 9f 58 42 bd 06 65 5d bd 24 8d e5 bc
       0.033560682 -0.047447797 -0.05405142 -0.028021403
000220 0e b3 aa bd 4b 4f e4 3d d4 ae b5 bd 2b f0 a7 3b
       -0.08334933 0.111479364 -0.088712364 0.005125066
000230 2d 9e 76 3c 4d 32 c4 3d 40 d8 be 3d 9b 66 28 3d
       0.0150523605 0.095799066 0.0931859 0.041113477
000240 a6 9e b6 3a 92 f3 b7 bc 2a a5 99 bd f9 bd ef bc
       0.0013932779 -0.02245501 -0.07502206 -0.02926539
000250 a6 99 44 bd 34 4a bb 3d d0 f0 ec bc b0 1d b1 bc
       -0.047998093 0.091450125 -0.028923422 -0.021620601
000260 a1 33 a2 3d 85 1c 39 3d 38 ca 3a 3d dd 94 ac 3b
       0.07920004 0.045193214 0.045603007 0.0052667693
000270 22 c7 9f bd c1 f9 23 3d 50 7f 17 3d f3 5e 33 bd
       -0.078016534 0.040033106 0.03698665 -0.043791723
000280 b4 03 72 bd 05 9d a3 bd b6 5d 05 3d 4c 11 83 3d
       -0.059085563 -0.079889335 0.032560073 0.063997835
000290 3f 97 41 3c e9 c4 83 3d c0 23 6f 3d 9f 7f 20 3d
       0.011815845 0.06434042 0.058383703 0.03918421
0002a0 d6 fc 9b 3d f4 4f 8e 3d 8e 5b 87 3d 05 8c 6b bc
       0.07616584 0.069488436 0.066092595 -0.014376645
0002b0 6c d3 90 bd 2b 5a ee 3b d1 32 87 bd 38 88 8d bd
       -0.070715755 0.0072739325 -0.06601489 -0.06910747
0002c0 7d 40 7e bd 91 7c b3 3d 80 ac 98 bd 67 8f bf ba
       -0.06207322 0.087639935 -0.07454777 -0.0014614881
0002d0 41 d3 a1 bc 9e b9 a9 3c 2f 19 5d 3b 42 63 52 3d
       -0.019754054 0.020718392 0.0033736934 0.05136419
0002e0 c4 fc 37 bd 1e e9 f6 3c ff 1b af bc 2c 07 ab 3d
       -0.04491879 0.030140456 -0.021375654 0.08350977
0002f0 ad e9 91 bc a9 68 90 bd f9 a2 89 3d 1f f8 cf bc
       -0.01781162 -0.07051212 0.06720538 -0.025386868
000300 e9 7a 01 3c 96 1f 4c 3d 4b 94 c7 3c bd b7 b0 bb
       0.007902839 0.04983481 0.024362704 -0.005392997
000310 8d d1 48 3c 20 40 80 3d 3c de b4 bc 7c 84 bf bd
       0.012256992 0.06262231 -0.022078626 -0.09351441
000320 18 d8 2d bd b7 c8 79 3d d1 bc bf bc e2 18 77 bd
       -0.04244241 0.060982432 -0.023405464 -0.060326464
000330 fc 8b 6d bd a2 ad 81 bd 8d 15 7d 3d d8 3f ed 3c
       -0.057994828 -0.06331946 0.06178813 0.028961107
000340 a2 51 4c bd 0a 6c 5a bd a6 69 8e bd 0f 15 52 bd
       -0.04988254 -0.05332569 -0.069537446 -0.051289614
000350 6d e6 89 bd 46 00 06 3d 1d bc a1 bc 62 29 5c 3d
       -0.06733403 0.032715105 -0.01974302 0.053750403
000360 af 2e ab 3c 3d 79 a3 bd 95 19 67 bd 36 3b a3 3c
       0.020896284 -0.07982109 -0.05642088 0.019925695
000370 44 0f 6f 3d 9d 05 a5 bb 4b 5e 9f 3d 5d b1 8d bd
       0.058364168 -0.0050360695 0.07781657 -0.06918595
000380 67 79 9b 3d 88 38 8e bb ff 7d 71 3d bd 03 29 bd
       0.07591515 -0.004340235 0.05895805 -0.04126333
000390 28 0f cd 3d 54 65 43 bd 74 e6 5b 3d e7 bb 2e 3d
       0.100126565 -0.047704056 0.053686574 0.042659666
0003a0 e8 bf 2f bd 7c 86 2d 3d 0c 35 f7 3c cb e5 a6 bd
       -0.042907625 0.042364582 0.030176662 -0.08149298
0003b0 b6 09 40 bd 98 9f b8 3d 30 1e 25 3c 6b 95 e3 3d
       -0.04688426 0.09014815 0.010077998 0.111124836
0003c0 51 15 ce 3d d6 b7 40 3c 8c d9 15 3c 21 47 94 bc
       0.100626595 0.01176258 0.0091461055 -0.018100323
0003d0 6d ab db 3c ad 40 6f 3d 16 7a bf bd 68 78 ce 3d
       0.02681514 0.05841129 -0.09349458 0.100815594
0003e0 0f 40 83 3c 7b 05 d6 3c 3a f8 83 bd 06 8d 0c 3d
       0.016021756 0.02612566 -0.0644383 0.034314178
0003f0 89 a6 97 ba 04 e6 2a 3d 24 7f 58 3d b9 81 d3 3d
       -0.0011570017 0.041723266 0.052855626 0.10327477

fc1.bias f4 [128]
000000 c6 39 a0 bc 5d ba 2f bd c9 7e c5 3c df 8d 86 bd
       -0.019558799 -0.04290234 0.024108307 -0.065700285
000010 60 8a 75 bd f3 3a 9c bd 22 16 44 3d 65 5d 57 3d
       -0.059946418 -0.07628431 0.04787267 0.052579302
000020 00 6e 8c bd 58 cf 78 bd 3e f6 8b bd c1 f7 22 3d
       -0.06856918 -0.060744613 -0.06834076 0.039787058
000030 2d c5 66 3d 24 04 38 bd 51 80 bb 3d d8 1b 30 3c
       0.056340385 -0.044925824 0.09155334 0.010748826
000040 e1 a1 89 3d 85 8d c7 bc 8e 4e e4 3d 78 46 9a 3c
       0.06720329 -0.024359474 0.111477956 0.01883243
000050 66 47 87 bd a4 1e bd bd 87 db a1 3d ba 8d 8a 3d
       -0.06605415 -0.0923436 0.079032 0.067653134
000060 38 ba b1 3b cc 85 93 3b 1a 43 89 3d 3a 13 99 3d
       0.0054238103 0.004502034 0.06702252 0.0747437
000070 2b 51 45 3d 32 8f 9d 3d 4e 65 2a bd 1c ca cf 3d
       0.04817311 0.07693328 -0.041600518 0.10145971
000080 c1 f3 8c 3d c6 68 6b 3c a6 84 a5 bc 67 1a fd bc
       0.0688243 0.014368242 -0.020204853 -0.030896379
000090 a5 f1 c2 bd c1 d2 81 3b 90 45 f5 bc ca 57 86 3d
       -0.09518746 0.0039618914 -0.029940397 0.06559713
0000a0 32 b1 3f bc 87 28 d2 bd d3 98 2f 3d d6 53 1d 3d
       -0.0116999615 -0.10261636 0.042870354 0.03841003
0000b0 ec ef 85 3d 26 60 d9 bc 38 e2 95 3d a9 e8 88 bd
       0.06539902 -0.026535105 0.073185384 -0.066850014
0000c0 e9 be 81 3d df 0c 51 3c dd 1e 73 3d 2f 09 2b 3d
       0.06335241 0.012759416 0.059355605 0.041756805
0000d0 9f 97 9e 3d 56 a7 84 bd 28 18 ea 3d c8 a7 74 bc
       0.07743763 -0.06477229 0.11430389 -0.01493258
0000e0 d8 b3 12 bd 03 25 35 bd f6 cb d1 bd 8a 96 f4 3c
       -0.035816044 -0.04422475 -0.102439806 0.029856939
0000f0 a2 b6 d3 3d 00 29 0d bd ab 6c 76 bd 37 85 8e 3d
       0.10337569 -0.03446293 -0.060162228 0.069590025
000100 f8 d3 db 3d c0 03 8b 3d ac 18 a8 bd f0 de cc bd
       0.10733789 0.06787825 -0.08207831 -0.100034595
000110 21 ce 84 bc 10 05 8b bd 10 ec 01 bd 4d db cb 3d
       -0.016211571 -0.06788075 -0.031719267 0.09953938
000120 35 7a 80 bd 8b 16 d6 3c 71 a7 d2 3c 37 d7 1a 3d
       -0.06273309 0.026133796 0.025714608 0.0378029
000130 b3 07 bd 3d 6c f1 bb 3d c0 a8 b5 3d 47 f0 08 bd
       0.09229984 0.09176907 0.08870077 -0.03343227
000140 6d 53 5e 3d 9c 85 bd 3b 48 ba cd 3d 66 54 d2 3d
       0.05427878 0.0057837497 0.10045296 0.10270004
000150 8e a6 17 3d 94 67 20 3d af 5a 9f 3d 2f b0 44 3d
       0.037024073 0.03916128 0.077809684 0.048019584
000160 a7 cf 15 bc 6f 67 2f bd 11 c4 4a 3c a5 c7 d2 bd
       -0.009143746 -0.04282325 0.012375847 -0.102919854
000170 44 5c d8 bc 35 fc 94 bd 83 f4 9d 3d 1d b8 28 3b
       -0.026411183 -0.07274667 0.077126525 0.0025744506
000180 8f f0 c4 3d ae 17 c3 bc a0 4e 3a 3d d7 e7 5e 3d
       0.096161954 -0.023815002 0.04548514 0.05442032
000190 13 38 ae bc 91 a1 a0 3d b1 10 52 3d 5d 3b 30 bd
       -0.021266973 0.07843316 0.05128545 -0.043025363
0001a0 6c 9f d7 3b bd 74 ec ba 35 97 58 3d e8 b6 95 3b
       0.006580284 -0.0018040162 0.052878577 0.0045689233
0001b0 31 48 e4 bc fe 0f db bd 88 26 98 3d b6 2c 06 3c
       -0.027866455 -0.1069641 0.07429224 0.008189371
0001c0 80 5f 9e 3d 8e 95 8f bd 7c ce 90 3d d3 6c 76 3d
       0.07733059 -0.07010947 0.07070634 0.060162377
0001d0 c3 7b 79 bd fc 6f 20 3d e4 01 5d bb 4d 0e a9 3d
       -0.060909044 0.039169297 -0.003372305 0.08254681
0001e0 73 f9 94 bd 87 e8 95 3d 79 7e 39 bd 43 92 60 bc
       -0.07274141 0.07319742 -0.04528663 -0.0137067465
0001f0 2d 59 93 3d dc 7b 0b 3b dd 2c 91 bd c7 95 36 bd
       0.07194743 0.0021283543 -0.07088635 -0.044576433

fc2.weight f4 [4, 128]
000000 85 51 5c bd ee 83 1c 3c e1 18 79 3d d9 ff 7a 3d
       -0.05378868 0.009552939 0.060814742 0.06127915
000010 e5 38 1a 3d 16 b5 94 3d c4 21 29 bd f6 66 d3 ba
       0.037651915 0.07261102 -0.041291967 -0.0016128707
000020 b6 a2 21 bd 40 a8 53 bb 7c a3 bb 3d 56 35 3b 3d
       -0.039461814 -0.003229633 0.091620415 0.045705162
000030 89 3f b3 3b 75 8c ac bd ef db 23 bd 30 6b 23 3d
       0.0054702205 -0.084252276 -0.040004667 0.039897144
000040 fc 88 aa bd c8 79 83 3d a0 d6 38 3d 7e 30 68 bd
       -0.08326909 0.06419712 0.045126557 -0.05668687
000050 12 e3 84 3d 20 db 98 3d 35 ca b4 3d 41 c2 69 3d
       0.06488623 0.0746367 0.088276304 0.05707002
000060 50 c3 0f bd 0c 5f 2b 3d 37 91 71 bd 09 c6 42 bd
       -0.035098374 0.04183869 -0.05897638 -0.047552142
000070 fc cf bc 3c 78 76 d6 3d 5c 7b cc 3d 67 8e ac ba
       0.023048393 0.10471815 0.099844664 -0.0013164998
000080 d6 c6 be 3c 02 67 b1 bd 83 5d c4 bd 10 37 2d bc
       0.023288172 -0.08662225 -0.095881484 -0.01057221
000090 92 c9 75 bd e6 7d 96 3d 52 2e 32 bd 42 48 1c 3d
       -0.060006686 0.07348232 -0.043501206 0.038154848
0000a0 2c 5b d7 bd 44 2b 26 bd ce 99 80 3c 31 bd 9b bd
       -0.105154365 -0.040568605 0.01569834 -0.07604445
0000b0 d3 fe 06 3d 40 05 9f bd 43 d0 a1 bd ca 1d 74 bb
       0.032957863 -0.07764673 -0.07901051 -0.00372492
0000c0 03 df f3 bc b0 6d c4 3d 13 0c 42 3d 45 70 d5 3d
       -0.029769426 0.09591234 0.047374796 0.10421804
0000d0 bf 5a dd bd 4c b8 92 3c f9 b9 b8 bd e0 c4 a0 bd
       -0.10808324 0.017910145 -0.090198465 -0.07850051
0000e0 09 23 30 3d 51 c6 a4 bc 42 04 89 bd d9 84 95 3d
       0.043002162 -0.020114096 -0.06690265 0.07300729
0000f0 12 78 8d bd c3 9a be bd a8 3f 0f 3c 7d 8f c4 bd
       -0.06907667 -0.09306862 0.008743204 -0.09597681
000100 e2 3a aa bd 9c 39 9d bb b6 1a ae bd 45 b5 28 3c
       -0.08312012 -0.0047981273 -0.085011885 0.010297124
000110 ff 32 d9 bd ea 20 13 3c ad e7 c0 bd bd 0c cd bd
       -0.1060543 0.008980015 -0.09419189 -0.10012195
000120 2d 17 05 bd e4 bb a6 3d a8 91 60 bd 5e 78 d0 bd
       -0.032492805 0.08141306 -0.05482641 -0.10179208
000130 64 80 92 ba 3d 5e 61 3b 62 8a 7f bd f9 75 2b bd
       -0.0011177179 0.0034388446 -0.06238783 -0.041860554
000140 e5 21 6d bc 1a 19 8d bc ff bf 0f bd 9f 00 9e bd
       -0.014473413 -0.017223883 -0.03509521 -0.07714962
000150 dc 49 86 3d 5c 2d d0 bd 8f bb b6 3c 12 d6 66 3c
       0.06557056 -0.101649016 0.022306232 0.014089124
000160 04 8a a0 3d 20 f3 ea 3b 1f 6f 94 3d cb d7 93 bd
       0.078388244 0.007170096 0.07247757 -0.072188936
000170 93 c1 b6 3c 8d 86 cc bd a1 ff 32 bd 7a e0 aa 3d
       0.0223091 -0.09986601 -0.043700818 0.08343597
000180 e7 e0 86 3d 48 10 07 3c 9b 34 0c 3d e6 19 59 bc
       0.065858655 0.008243628 0.034229856 -0.013250804
000190 96 a2 42 bc 03 95 c2 bd 89 21 97 bc 64 fc cd 3d
       -0.011879584 -0.09501078 -0.018448608 0.10057905
0001a0 be 21 4e bc 24 c4 b3 3c 7a 45 11 3c a4 8d a7 3d
       -0.012581287 0.021944113 0.008866662 0.08181313
0001b0 3f 2b d6 bd ec a6 b9 3c 2c 8e 50 3d c9 5a 38 3d
       -0.10457467 0.022662602 0.050916836 0.045008454
0001c0 da 9a b2 bd c5 dd 26 3d ae f0 8d bd f9 86 8b 3d
       -0.08720942 0.04073884 -0.06930672 0.06812853
0001d0 ac e3 b8 3d 84 55 d5 3d f2 e3 51 bd d5 cb 9a bc
       0.090278 0.104167014 -0.051242776 -0.018896023
0001e0 a8 e7 d1 3d 18 be 3b bd bc c0 1f 3d 84 06 c8 bd
       0.10249263 -0.045835584 0.039002165 -0.09766868
0001f0 06 6d 99 bd 98 67 e1 3c 80 4c 60 3d 8f d3 dc bd
       -0.07491498 0.027515218 0.054760456 -0.10782539
000200 11 01 a9 bc 46 37 5a 3d 99 91 26 3c 37 47 c8 bd
       -0.020630391 0.05327537 0.010166549 -0.09779208
000210 81 01 89 3b ea b7 ba bd 60 c4 8e 3d 14 2e cf 3d
       0.0041810875 -0.0911711 0.06971049 0.101162106
000220 f3 b3 55 3c e3 87 86 3d 3a e9 d3 3d c1 61 50 bd
       0.0130433915 0.06568887 0.10347219 -0.050874475
000230 11 3d c8 3d 0f 17 a6 3d 61 b8 67 bd a4 cd 01 3d
       0.097772725 0.08109867 -0.05657232 0.031690255
000240 9e b9 50 bd f9 cf 41 3d 0f 2c 8f 3c 81 c6 38 bd
       -0.05095827 0.04731748 0.017477063 -0.045111183
000250 7e fe 88 bd 38 be 2e 3d 23 85 8b bd 50 09 56 3c
       -0.066891655 0.042661875 -0.06812503 0.013063744
000260 66 9c 1d 3d ee 56 8d 3d 29 f1 b2 3c 68 08 57 bd
       0.03847923 0.06901346 0.02184351 -0.05249825
000270 ae a7 bd 3d d7 7a 1a bd 38 66 f4 bc 5d 03 36 3c
       0.09260498 -0.037714805 -0.029833898 0.0111092
000280 d0 28 d9 bd 68 b0 bc bc 03 bb 8d bd 36 47 1d bd
       -0.106034875 -0.023033336 -0.06920435 -0.03839799
000290 03 fb 9f bd 21 4c cf 3c 20 63 c4 bd 3c 7e 91 bd
       -0.078115486 0.025304856 -0.09589219 -0.071041554
0002a0 f4 74 4e bd dc 67 6c 3c f6 6b 85 bd a2 5e 02 3d
       -0.050404504 0.014429059 -0.065147325 0.03182853
0002b0 45 5c 17 3d de 68 44 3d 33 c6 83 bd 31 af 88 bd
       0.03695323 0.04795157 -0.06434288 -0.0667404
0002c0 60 be d0 3c ff 9a c2 bd 85 e5 45 bd f3 40 66 bd
       0.025481403 -0.095022194 -0.04831459 -0.056214284
0002d0 e6 36 29 3d 16 b5 5a 3d cf 0e 83 3d 9b e8 cf 3d
       0.04131212 0.053395353 0.06399309 0.10151788
0002e0 66 49 ba bd f8 56 52 bd c5 ba 38 bd e0 fb 1f bd
       -0.09096031 -0.05135247 -0.045099992 -0.039058566
0002f0 82 b4 b1 3d 57 4c d7 3c ef 7b 95 bc 5f 3f 19 3d
       0.08677007 0.026281519 -0.018247573 0.03741395
000300 cc 61 de 3d dd 60 ad bd d9 7c 72 3d cf 5c c0 bc
       0.10858497 -0.08465741 0.059201095 -0.023481755
000310 ec 1f 88 bd 2d 22 9f bd 91 86 08 3c bd a4 13 3c
       -0.066467136 -0.077701904 0.008332864 0.009011445
000320 e7 02 b0 3c e5 76 98 3d 91 f6 8b 3d ee ac 1f 3d
       0.021485759 0.07444552 0.06834138 0.038983278
000330 c0 dc 24 bd dd 63 83 3c 60 97 e6 3c 32 ae 47 3b
       -0.040249586 0.01603883 0.028148353 0.0030468819
000340 23 af ca bd a2 4a a8 bd 5e 42 87 3d 35 de 31 3c
       -0.09896686 -0.0821736 0.066044554 0.010856201
000350 9b d7 a7 bd d8 68 6b bd 24 66 0e bd 79 24 b0 bd
       -0.0819542 -0.057473034 -0.034765378 -0.086007066
000360 28 65 a2 3d cf ff 80 bd 95 04 8b 3d a4 30 1f 3d
       0.0792945 -0.062987916 0.06787983 0.038864747
000370 c9 8e 00 3d 07 ca 88 bd c8 c6 c9 3d 93 30 af bd
       0.03138617 -0.06679159 0.09852368 -0.08554187
000380 ab 7b 03 3d a9 b2 b1 3d a2 b7 1c bb 1b eb e1 3b
       0.03210036 0.08676655 -0.0023913165 0.006894482
000390 80 06 9a 3d ef 27 71 bd 84 21 2b bd 8d 03 80 bc
       0.07520771 -0.058875974 -0.04178001 -0.015626693
0003a0 18 78 8c bc 70 b5 88 bd db 80 c7 3d d5 e8 8b bd
       -0.017147109 -0.066752315 0.09741374 -0.068315186
0003b0 cd 29 43 3d b1 2f 37 bb 60 52 77 3d d2 35 9c bd
       0.047647286 -0.002795201 0.060381293 -0.07627453
0003c0 fe 1a a5 bd a1 f0 1c 3d fb f8 09 3c 1f 9b 3d bd
       -0.08061789 0.03831542 0.008421178 -0.046290513
0003d0 ce 27 c9 bd 9b 10 c3 3d 62 87 04 bc 51 1e 31 bd
       -0.09822045 0.095246516 -0.008088918 -0.043241803
0003e0 72 8e 03 bd fc 7e 2e bd 36 1a 40 bd 01 5a b3 3d
       -0.03211827 -0.04260157 -0.046899997 0.08757401
0003f0 63 1e 59 bb a9 1f 5a 3d 82 45 0a 3a 34 01 ed bc
       -0.0033129684 0.05325285 0.00052746397 -0.028931238

fc2.bias f4 [4]
000000 6e ed 81 3d 87 6c 8a 3d 4d e3 26 3d 54 29 21 bb
       0.06344114 0.06758981 0.040744115 -0.0024591284
