model_bert.pth (torch, 8125 bytes, 2 tensors)

fc.weight f4 [4, 384]
00000000: 5b02 233d 3630 7a3d 5240 f4bc e88c 1eb9
00000010: 8b6e 513d f373 d63c 3031 703d c29c f63b
00000020: c5ff 5bbd 5dc8 68bc 0bef 8b3d 80b3 d6ba
00000030: a9f0 703c 3156 00bc 245e c7bc cd58 4bbc
00000040: 40a4 7b3d 2111 2f3d d83e 8abd 543f e0bc
00000050: 8d9d 363c 14c5 b93c 6331 25bc 262d 133b
00000060: d535 e43c fbaa 67bd 5d33 d93c 8c4c f93c
00000070: dca5 713a f9eb 8c3b 5938 9c3c 92b1 213d
00000080: 2b64 0fbb 6001 a93c d0c4 4e3d be19 db3c
00000090: ced3 fb3c 7e43 b5bc f03c 50ba e781 33bd
000000a0: eb2b 84bd 8a98 8e3d a7db ca3c fe60 68bd
000000b0: 9b38 423d c808 b63c 6e41 a03c 9e44 71bd
000000c0: b0d3 c2bc f835 793d 6544 24bd c83e 443d
000000d0: 80c7 4e3b ff30 39bd ef4f 01bd 1b19 64bd
000000e0: 328f 5fbd 0b5f 753c a8ef 60bd 9014 d23c
000000f0: d518 893d 6a5e e33c afe4 82bd 5f96 d13c
00000100: 73ac 763c b57c bbbc 5d0b 60bd 33f3 e53c
00000110: 0914 86bd 068d da3c 61b7 f8bc 676d 723c
00000120: ee28 fbbc e8b1 2dbb e82e 793b 1877 a83c
00000130: 3632 58bd 0a81 8a3d 5058 813c b8a1 a5bb
00000140: 3c4f fb3b 6892 58bd 83ed 23bb 6b19 6fbb
00000150: 86af 723c f32c ac3c e29b 5f3d aa22 c0bc
00000160: d5b4 e53c dca3 833d a3c8 5bbc c78b 1b3d
00000170: 9ad8 3abb 9154 823d 4175 203d 107a 2abb
00000180: f3e1 033d a696 a43c 4cf7 bc3c 280f b43b
00000190: 8278 ff3c cf00 943c 1793 cabc 42a0 8cba
000001a0: 8efc d93c 86d5 86bc 9cb8 5e3c 40f5 403d
000001b0: 2383 4dbc e8fc be39 7057 b53c c8b3 a7bb
000001c0: 6cd8 1cbd 299e 68bc 6202 56bb 159e 183c
000001d0: 30c5 eb3c 00c2 f4bc 6c72 67bc 7942 b5bc
000001e0: e92a ac3b 89cf 653c 9813 5dbb d0e5 533c
000001f0: a09c 813b eaa4 6dbd 3539 7dbc 9e71 2f3c
00000200: 691a 77bd 8ec9 903d 33f7 49bd 3c30 53bb
00000210: 28b1 2f3d 0ce4 d53a 5ab8 7cbd c58f 593d
00000220: 1799 243c d538 1d3d 4eb8 c7bb 7cbd a4b9
00000230: 254a a1bb 8a59 93bc 92d9 073d ea4f 4d3d
00000240: 8f37 85bd eabb eebc a9a4 a43c eb07 dfbc
00000250: 392b eb3c 3cd0 d6bb ab12 7a3d 1718 8e3c
00000260: 402c 09bd a0af 32bc bafc 653c 6e3f c1bc
00000270: a607 553d bc8b 20bd 8906 253d 8a5d 6fbd
00000280: 4663 01bc edfe 25bd 61ed 0abd ad82 88bc
00000290: a895 483c 8a09 6d3d 367e 52bd c23c 4dbc
000002a0: 5eb5 84bd e81e 09bd ed16 663d d689 b33c
000002b0: 53eb 893d 0904 243d 54df 8ebc 289a 87bd
000002c0: 6ec5 27bb 476f e03c a2c8 dc3c 8d9c 723d
000002d0: 844a 573b 7d1a bf3c ca17 443c 3fcd 99bc
000002e0: 08aa afbc 14c9 3a3d 51bc b5bc f456 5cbd
000002f0: 34ac dcbc 8aee 0ebd ec92 48bd ac7d 5cbd
00000300: f2e9 87bc 5800 41bb 2adf fabc f98f 38bd
00000310: 7b30 a4bc d644 83bd f119 203c 9b17 833c
00000320: 8281 e93c 8b69 b43a c6aa be3c 187b 9bbc
00000330: 3931 a13c cb8f a0bc d499 2abd 2aac cd3c
00000340: 58c7 073d c1ab 2bbd 7f09 82bd 90f2 093c
00000350: 8259 37bc 970b 33bc 2790 d33c 368a 46bd
00000360: 0bcb 553d c7b0 093d 6cfa e53b 81cb f73a
00000370: d12d 8dbd a217 c13a 8ec9 ed3c fb54 bb3c
00000380: bf02 243c 56c2 b3bc 8597 3cbc bea8 243c
00000390: 82fb 68bd 158c cdbb 9a40 d03c 1e61 2e3d
000003a0: eb9d 533d 0e76 c9bb 02be 6bbd fc45 d73c
000003b0: a6f7 afbb cb3b 55bb 2ee0 123d ca5c 57bd
000003c0: 8e69 abbc bc1a 9bbc adc9 7cbd 4087 773b
000003d0: fe79 8fbd b6e2 ac3c 7120 0e3d e82f a4bc
000003e0: f8f7 99ba 4692 ff3b dab0 38bd 46fc 8dbd
000003f0: bf5f ec3b 2def 683c 9465 043c c335 f1bb
0.03979717 0.061081134 -0.029815827 -0.00015120546 0.051130813 0.026178336 0.05864066 0.007526011
-0.053710718 -0.014207927 0.06832703 -0.00163804 0.014705815 -0.00783305 -0.024336882 -0.0124113085
0.061435938 0.042740945 -0.06750268 -0.027373947 0.0111459615 0.022676982 -0.0100825755 0.002245733
0.0278577 -0.056559544 0.02651375 0.030432008 0.00092181354 0.004300591 0.019069837 0.039475985
-0.0021879773 0.020630538 0.050480664 0.026745673 0.030740645 -0.02212691 -0.00079436507 -0.043825056
-0.06453689 0.06962688 0.024762942 -0.056733124 0.047417264 0.022220984 0.01956245 -0.05890333
-0.023782581 0.060842484 -0.04010429 0.047911435 0.0031552017 -0.045212742 -0.03157037 -0.055688005
-0.05457992 0.014976273 -0.054916054 0.02564457 0.066941895 0.027754981 -0.06391274 0.025584398
0.015055764 -0.022886613 -0.054698337 0.028070068 -0.0654679 0.026678573 -0.03036088 0.014796591
-0.030659165 -0.0026503745 0.0038022343 0.0205646 -0.05278226 0.067628935 0.015789181 -0.005054679
0.0076693576 -0.052874 -0.0025013394 -0.0036483656 0.014812356 0.021017527 0.05459202 -0.02345403
0.028040329 0.06427738 -0.013414535 0.0379751 -0.0028510452 0.06363786 0.039174322 -0.0026012696
0.032197904 0.020091366 0.02306714 0.005494971 0.031185392 0.018066792 -0.024728341 -0.0010728913
0.026609685 -0.016459238 0.013593819 0.04710889 -0.012543472 0.00036428054 0.02213642 -0.005117867
-0.038292333 -0.014197865 -0.003265523 0.009315033 0.02878055 -0.029877663 -0.014126401 -0.022126423
0.0052541387 0.014026531 -0.0033733603 0.01293321 0.0039554387 -0.058018602 -0.015455534 0.010708241
-0.06032792 0.070696935 -0.049308013 -0.0032224795 0.04289356 0.0016318574 -0.06169925 0.053115625
0.010046265 0.038384277 -0.006094969 -0.00031421694 -0.004922169 -0.017987031 0.033166476 0.05012504
-0.065047376 -0.029142339 0.020098047 -0.027225455 0.028707134 -0.006555585 0.06105296 0.017345471
-0.033489466 -0.01090613 0.0140373055 -0.023589816 0.052009247 -0.03919576 0.040289436 -0.058438815
-0.007897204 -0.04052632 -0.03391779 -0.016663874 0.012242712 0.057870425 -0.051389895 -0.012526693
-0.064799055 -0.03347674 0.056174207 0.021916311 0.06734338 0.04004291 -0.017440476 -0.066212
-0.0025599855 0.027396811 0.026951138 0.05923133 0.0032850811 0.02332806 0.011968562 -0.018774627
-0.021443382 0.04560192 -0.022184523 -0.053793862 -0.026937582 -0.034895457 -0.04896824 -0.053830788
-0.016591046 -0.0029449668 -0.030623991 -0.045059178 -0.020042649 -0.06409614 0.00977181 0.016002467
0.028504137 0.0013764364 0.02327479 -0.018979594 0.019676792 -0.019599816 -0.04165061 0.025106508
0.033149093 -0.041911844 -0.063494675 0.008419648 -0.011190774 -0.010928056 0.025825573 -0.048471652
0.05219559 0.033615854 0.007018378 0.0018905253 -0.068935044 0.0014731775 0.029026773 0.02286767
0.01001042 -0.021943253 -0.011510734 0.010049997 -0.05688048 -0.0062728026 0.02542143 0.042573087
0.051664274 -0.0061481064 -0.057554252 0.026278488 -0.005370098 -0.003253686 0.035858326 -0.052578725
-0.020924356 -0.018933646 -0.06171577 0.0037769824 -0.0700569 0.021104198 0.034698907 -0.020042375
-0.0011746874 0.0077994196 -0.045090534 -0.06932883 0.0072135623 0.01421718 0.008080859 -0.007361145

fc.bias f4 [4]
00000000: fa26 c2bc 5055 86bd 8e60 80bc c37f 55bc
-0.023700226 -0.06559241 -0.01567104 -0.013030949
