model_bert.pth (torch, 8125 bytes, 2 tensors)

fc.weight f4 [4, 384]
000000 42 f4 77 bb 9e c8 07 3d b9 1d e1 3c a8 45 b4 bc
       -0.0037834798 0.033150308 0.027479993 -0.022005871
000010 f6 97 9a bc ee 89 09 bb 3a 04 91 bc 9e a5 84 bd
       -0.018871289 -0.0020986754 -0.01770221 -0.064769015
000020 81 c6 14 3c b7 05 40 bc 23 15 3c 3d df 26 7e bc
       0.00908053 -0.0117201125 0.045918595 -0.015512197
000030 58 49 b9 bb 59 54 b0 bb 8e d1 81 bd 2e 14 61 bc
       -0.005654495 -0.005381149 -0.063387975 -0.013737721
000040 96 be 84 3c db bf 38 3d 1f 7a b2 bc 5b ea e2 3c
       0.01620416 0.045104843 -0.021786748 0.02769964
000050 f8 ac ed bc 64 28 24 3d 20 a1 57 b8 ec 64 c8 bb
       -0.029013142 0.040077582 -5.1410054e-05 -0.0061155465
000060 17 f5 68 3d 8c 96 4a 3d 54 78 e5 3c 74 fd e6 3c
       0.05687436 0.04945998 0.028011478 0.028197028
000070 eb cb 10 bd 8b 37 88 3d b1 64 92 bc a4 de 89 bd
       -0.03535072 0.06651219 -0.017870279 -0.067319185
000080 96 93 c6 bc 3c 24 6c 3c 84 b5 74 3b e6 49 fb bb
       -0.024240296 0.014412936 0.0037339637 -0.0076687215
000090 6f 11 2f bd e4 ba e6 3c 97 93 c0 bc c1 5c 7b 3d
       -0.042741235 0.028165288 -0.023507876 0.061367754
0000a0 3c 41 0d bd 7e ef bd bc 80 ca d5 b8 c4 30 16 3d
       -0.03448604 -0.023185488 -0.0001019435 0.0366676
0000b0 6e 22 25 3d 18 8d 50 bb bc 5a fd bc 47 01 c6 bc
       0.040316038 -0.003182238 -0.030927055 -0.024170531
0000c0 06 ef 2f 3d 06 ec 5b ba e1 49 5f 3c ec 00 0f bd
       0.04295256 -0.0008389357 0.013628454 -0.03491299
0000d0 74 35 07 bc e6 e3 df 3c 84 c0 89 bd ba 12 c1 bb
       -0.00825249 0.02733035 -0.067261726 -0.005892125
0000e0 ed 16 dd 3c 53 95 8a bc 13 f4 ed bc 29 68 30 3d
       0.02698847 -0.016916906 -0.029047048 0.043068085
0000f0 a6 5e b8 bb 32 d9 5a bc 96 e1 01 3d 7a 3c 02 bd
       -0.0056265173 -0.013357447 0.031709276 -0.031795956
000100 23 52 cf 3c 9c 78 40 bd b3 e2 29 bd 2d 6e 00 bc
       0.02530772 -0.046990022 -0.041475963 -0.007838768
000110 ec 85 89 bd 33 54 73 bc 9f ed 00 bd 96 dc c1 bb
       -0.06714997 -0.014851618 -0.031476613 -0.0059161885
000120 fa 86 53 bd 5a 27 2b 3d e0 c2 6f bd c7 e2 26 3d
       -0.051642396 0.041785575 -0.058535457 0.040743615
000130 24 fc a5 bc 15 fd 3a 3d d4 02 90 bd 50 06 8a 39
       -0.020261832 0.045651514 -0.070317894 0.00026326114
000140 6a a5 f2 bc 32 5c fe bb 4d 7b 4d 3d 9a 52 c9 bc
       -0.029619891 -0.0077624554 0.050166417 -0.02457552
000150 37 71 f1 3c 1c 12 f4 3c d0 7d e3 bc c4 ac 8b bd
       0.02947293 0.029793791 -0.027769953 -0.06820062
000160 43 e2 1b 3d 28 9f 2b bc 7b 50 f4 3c 27 51 27 bc
       0.038057577 -0.0104749575 0.029823532 -0.010212219
000170 d9 ee d4 3c 10 73 a4 3c 4f 69 24 3d 19 e4 f1 3c
       0.025992798 0.020074397 0.040139493 0.02952771
000180 7d 98 81 3d e2 57 77 bd cf b3 6a bc 42 a3 fa bc
       0.06327913 -0.060386546 -0.014325096 -0.030595426
000190 5c 9e 38 bb 43 7d 13 bd 65 f8 0c bd a3 5f 1d bd
       -0.0028170561 -0.03600813 -0.034416575 -0.038421284
0001a0 c5 b7 19 3d ef a2 b5 bc 79 2c a8 bc 3b 5c 62 bc
       0.037528772 -0.02217242 -0.020529019 -0.013815935
0001b0 e6 c9 dd bc 71 3a 02 3d e3 c3 73 3c 01 a1 36 bc
       -0.027073812 0.031794015 0.014878246 -0.011146785
0001c0 0b 5a 21 bd e6 5e 53 bc 1e bf 63 bd 36 e9 d0 bc
       -0.039392512 -0.0129010435 -0.055602185 -0.025501829
0001d0 55 8c 04 3c dc cd 39 3d c1 ed 97 bc 4e 76 4b 3c
       0.008090098 0.04536234 -0.018545987 0.012418343
0001e0 f9 c2 87 3c 24 6c 57 bc e1 b8 bb 3c 56 73 f5 3c
       0.016572462 -0.013148341 0.022915306 0.029962223
0001f0 42 11 f0 bc 93 8e b2 bb c6 e9 80 3c bc d5 67 bc
       -0.029305104 -0.005449125 0.015736472 -0.014150079
000200 12 dd 01 bd c9 ec 33 3c ea 82 44 3c e5 7e 86 bb
       -0.03170497 0.010981747 0.011994103 -0.0041044825
000210 fb 92 45 3d 72 8f d6 bc dc c6 0f 3d ee f4 5f 3d
       0.048235875 -0.026191447 0.035101756 0.054676943
000220 ce 3f 66 3c f5 d9 41 3d 60 a5 e4 b9 db 18 86 3b
       0.014053298 0.047327 -0.00043610763 0.0040923185
000230 4a 51 74 bd a6 26 b2 3b 8e b9 d9 bb 65 aa 3d bb
       -0.059647836 0.005436736 -0.0066444343 -0.0028940674
000240 af 01 52 bc 02 34 82 bc 45 9e 83 3d 5f fa bc bb
       -0.012817784 -0.01589394 0.06426672 -0.0057671512
000250 06 15 21 bd 32 80 84 bb 46 5b c8 bc ee 02 f8 bc
       -0.03932669 -0.0040436024 -0.024457585 -0.030274834
000260 c3 19 d8 3c 8a 19 be 3c 3b 5a a1 bc e8 0e 82 3b
       0.026379472 0.023205537 -0.019696346 0.003969062
000270 05 6b cb 3c b4 14 45 bd fc 1f 87 3c 05 bf 59 3b
       0.024831304 -0.048115447 0.016494744 0.0033225429
000280 61 1e c9 bc 1d 6f 32 3c 70 20 6c bd 93 eb f5 3c
       -0.024550619 0.010890749 -0.057648122 0.030019557
000290 d6 79 04 3d 24 a1 bd 3c bc 2e ab 3c 4b 5a 37 bc
       0.032342754 0.023148127 0.020896308 -0.011190961
0002a0 b5 ad ba 3c ad 17 89 3c da 1c b4 bc 1d d8 b3 3c
       0.022787908 0.016734922 -0.021986414 0.021953637
0002b0 8a 04 d6 3c 9c 6b 8e 3c 17 fc 80 3c bb 8f c4 3c
       0.026125211 0.017385297 0.015745206 0.023994317
0002c0 ca 12 f5 3c 93 6d 1f bc ce 18 41 3d d1 66 84 3d
       0.029916186 -0.009730714 0.047142796 0.06464923
0002d0 22 4a 55 bc 38 52 90 3d 93 71 da 3c fa c8 ef 3c
       -0.013018163 0.07046932 0.026665485 0.029270638
0002e0 dc 78 58 3b 66 af 11 bc ed 48 1c bd f3 75 14 bd
       0.0033031022 -0.008891916 -0.038155485 -0.036245298
0002f0 50 ea 22 bb 1b af ef ba 38 69 32 3d 9e b4 86 bd
       -0.00248589 -0.0018286438 0.043557376 -0.06577419
000300 49 b8 a2 bc 74 53 51 bd 6a 8a 4b 3d 27 fc b2 bc
       -0.019863265 -0.051104978 0.04969255 -0.021848751
000310 6c 5b 86 bd 8a 14 17 3b 80 87 0e bd d5 ff bb 3b
       -0.06560406 0.0023053014 -0.03479719 0.0057372847
000320 c9 92 ee 3b 32 68 86 bc 38 e8 b9 bc 37 ff dc 3c
       0.0072806817 -0.016407106 -0.022693738 0.026977165
000330 6e a5 c1 3b aa 4a 13 3c ac 98 45 bd 6e 83 df bc
       0.0059096133 0.008989969 -0.048241302 -0.02728435
000340 fb b2 c4 bc 21 53 dd bb b9 6f fe bc 01 c4 b4 bc
       -0.024011126 -0.0067542945 -0.031059133 -0.022066118
000350 6c 53 00 bd 8b 04 c8 3c 28 d8 97 bc 90 ab 84 bd
       -0.031329557 0.024416229 -0.018535689 -0.064780354
000360 a9 37 49 3d 42 7b 4a 3c c4 64 fc 3b ba c3 42 bd
       0.049125347 0.0123584885 0.007702442 -0.04754994
000370 0d 04 09 3c 16 76 69 bd e3 e9 f1 3c 95 35 9b bb
       0.008362782 -0.05699738 0.029530471 -0.004736612
000380 1e 81 5f bd eb 6e 4b bc 04 0d 25 3d 66 1a ec 3c
       -0.054566495 -0.012416582 0.040295616 0.028821182
000390 c6 61 8b bd ae a7 65 bd 3d 12 c0 3c 9d 32 5a 3d
       -0.06805758 -0.056068115 0.023446197 0.053270925
0003a0 48 ab 4a 3d 1a 28 1f 3d 6a a0 09 3d af 26 57 bc
       0.049479753 0.038856603 0.03360025 -0.0131317815
0003b0 c8 8e d8 bb ba da ed 3b 9c 8d 1b 3d 4e e7 d4 3c
       -0.0066088177 0.0072587403 0.037976846 0.0259892
0003c0 fd 57 9c bc b8 9a 90 3d ca 73 02 bd 5b f9 c1 3c
       -0.019084925 0.0706076 -0.031848706 0.023678472
0003d0 43 6a ff 3b c0 cd be bc 06 56 b4 bc ab b0 2a bc
       0.00779465 -0.023291469 -0.022013675 -0.0104180975
0003e0 d0 b2 33 bd 98 b0 3d 3b b0 fd 36 bc 9d 73 04 bd
       -0.0438717 0.002894437 -0.011168882 -0.03233682
0003f0 f0 52 9f 3c 22 16 bd bc 62 94 ad 3c a9 ab 69 3d
       0.019448727 -0.023081843 0.021188919 0.057048474

fc.bias f4 [4]
000000 36 75 1f 3a ac d5 3b bc cb e3 87 3c 2f 2b ae bc
       0.00060828344 -0.011464518 0.016588112 -0.021260826
